ckpt/rnn_stock_solutions_reg.pt (torch, 142015 bytes, 17 tensors)

rnn.weight_ih_l0 f4 [64, 5]
000000 19 d9 d4 bc bc bd e2 3d 48 d2 8b 3d 50 00 fd bc
       -0.025982426 0.11071345 0.06827217 -0.030883938
000010 3e ef eb bd 19 c0 22 bd 3a b7 8b 3d 27 8c 87 3d
       -0.11520241 -0.03973398 0.06822057 0.06618529
000020 b1 7e 26 bc 8f 27 f2 3c 97 20 33 3d b6 f4 43 bd
       -0.0101620415 0.029559879 0.043732252 -0.047840796
000030 a5 2d bf 3d 6c 6d a5 3d d8 9d 6e 3d b9 e3 3e 3c
       0.09334878 0.08077511 0.058256 0.011650973
000040 f4 d5 b2 3c d4 77 9e 3d d8 b6 94 3c 09 aa bf bd
       0.021830536 0.07737699 0.018153593 -0.093586035
000050 51 21 a3 3d f2 16 99 bd f1 15 b5 3d c3 b8 51 bc
       0.07965339 -0.074750796 0.088420756 -0.012800398
000060 2d 0d e3 bc 1e 02 b1 bd f7 8a 02 be 0a 0a db 3d
       -0.027716244 -0.08642982 -0.12748323 0.10695274
000070 8e 18 b2 bd ef ab 46 bd 64 97 23 3d 79 70 07 bc
       -0.0869609 -0.048503812 0.0399393 -0.008266562
000080 a9 60 be 3d 61 01 9d bd 1d d7 c9 3c 99 8c 86 bd
       0.0929578 -0.07666279 0.024638707 -0.065697856
000090 d5 1a 96 bd f2 60 d4 bd 1c 5c 26 3d 73 af 1e 3d
       -0.073293366 -0.10370053 0.040615186 0.03874154
0000a0 54 f0 fd 3a 50 70 f7 3d 9c f7 e5 3d db ee 88 3d
       0.0019373992 0.12081969 0.11228868 0.06686183
0000b0 17 a8 56 bc 3e df b8 bd e3 62 44 3d 5d 61 08 3c
       -0.013101599 -0.09026955 0.04794587 0.008323994
0000c0 46 ce 9f 3d d6 5d cc 3d 25 92 e0 bd 26 72 e9 3d
       0.078030154 0.09978835 -0.10965375 0.11398725
0000d0 2e e0 59 bd 1c 66 75 3d 71 ca 2d 3c b5 3b 83 3d
       -0.05319231 0.059911832 0.010607348 0.064078726
0000e0 44 97 12 bd 76 cf 1e 3c 39 5f 3b 3d fa be dd 3d
       -0.03578879 0.009693017 0.04574511 0.108274415
0000f0 96 92 28 3c 32 f3 c6 3d ac 44 89 bc b5 96 3d 3c
       0.010288855 0.097143546 -0.016756378 0.011571576
000100 b2 8e a4 3d 61 8c fc 3d 61 fc 63 3d 5b d7 53 3d
       0.080350295 0.12331463 0.05566061 0.05171905
000110 4b fc 02 bd 08 fd 8d bd 86 d0 f1 3c 38 39 01 3d
       -0.031978887 -0.069330275 0.029518377 0.03154871
000120 79 18 73 bc b0 7f 0b be 3f d5 c1 bd 30 8e 3d bd
       -0.014837378 -0.13622928 -0.094645016 -0.04627818
000130 12 56 86 bc 84 0b 5f 3c b1 cb eb bd 9e 1f d2 bc
       -0.016398463 0.013613585 -0.115134604 -0.025649842
000140 dc 85 b2 3d c3 5c 0e 3e 41 28 e7 3d 42 24 45 bd
       0.08716938 0.13902573 0.11286975 -0.04813028
000150 8b fb ea 3d be 24 12 bd 35 6f d9 bd c4 aa b8 bd
       0.11473759 -0.03567957 -0.10616914 -0.09016946
000160 af 76 cf bb 61 29 50 bd ac c7 ba bd c8 35 92 bd
       -0.006331287 -0.050820712 -0.09120116 -0.07139164
000170 97 f7 fd bc f5 7d 9f bc c2 f2 53 bc 40 29 bd bd
       -0.03100185 -0.01946924 -0.012936296 -0.092363834
000180 8f 02 f0 3c 0c 53 df bd e0 ef 0a 3e eb dd e8 3d
       0.029298095 -0.10904512 0.13568068 0.113704525
000190 10 12 a8 3d 9d 08 e4 3d 79 9b 42 bd 41 f6 ec 3d
       0.0820657 0.11134455 -0.04751155 0.11570407
0001a0 33 e4 e7 bc 37 3d 4d bc b1 37 e8 bc e0 8e ea 3d
       -0.028307056 -0.012526802 -0.028346868 0.114530325
0001b0 a3 37 5e 3c 2a c5 bb bd 5a b4 5d bd 32 0d 02 3e
       0.0135630695 -0.091684654 -0.054127075 0.12700346
0001c0 8f de 91 3d 3b 83 c0 3c 09 19 d6 bd c7 67 e7 bd
       0.07122528 0.023500076 -0.10453994 -0.11299091
0001d0 f7 8e 4f bd 9b a6 f5 bd 0b a8 d1 3d cc 6a b4 bd
       -0.05067345 -0.11994668 0.1023713 -0.088094324
0001e0 91 e6 4e bd 97 66 f6 bd bf 9d c2 3c 08 99 3d 3d
       -0.050512854 -0.12031286 0.02375686 0.04628852
0001f0 32 20 5b bc bf 46 70 bd b5 c3 cc 3d 7e 50 df bc
       -0.013374375 -0.05866122 0.09998266 -0.027260061
000200 8f c5 b4 3d ed ca c2 3d f6 05 36 bc 10 a0 a4 3c
       0.08826744 0.09511361 -0.01110982 0.020095855
000210 c5 f1 c0 bd 54 ba c5 3d 21 25 33 3d 4b fb 59 ba
       -0.09421114 0.0965468 0.04373658 -0.00083153386
000220 de 82 9f bb 8c 62 5a bd 02 a3 e2 3d e6 82 9c bd
       -0.0048678955 -0.053316638 0.110662475 -0.076421544
000230 6f cd 7d 3d a1 98 6e 3d 77 6c 3a b8 c2 7e 27 be
       0.061963495 0.058251027 -4.444687e-05 -0.16356948
000240 6e 11 a9 3d 5a 2e 22 3d 8b 70 98 bd 05 32 dc bd
       0.082552776 0.039594986 -0.07443341 -0.10751728
000250 da ad bd bd 58 39 85 3a 5e 1c d6 3d 32 c1 69 bd
       -0.09261675 0.0010164184 0.10454629 -0.05706901
000260 fb 5b dd 3d 8b 40 e1 bb 8f 7a 15 3d 92 9f 53 3b
       0.108085595 -0.006874149 0.036493834 0.0032291156
000270 e7 37 50 bd 0f cf d4 3b a2 f9 91 bc ad 54 f2 3d
       -0.050834563 0.00649441 -0.01781923 0.11832557
000280 02 f6 e8 bd 18 d3 b1 bd 0e 9d 9d 3c 28 58 56 bc
       -0.11375047 -0.08682841 0.019239929 -0.0130825415
000290 4d 7b 69 3d 94 ed 80 3d 85 47 7b bc 11 80 08 bd
       0.057002354 0.062953144 -0.015336876 -0.03332526
0002a0 02 0b f9 bd 35 01 02 3e 54 9e bf 39 b3 aa a2 3d
       -0.12160303 0.12695773 0.00036548323 0.079427145
0002b0 90 8b e5 bc 76 ec fa 3d f4 f3 c0 bd d7 cc dc bd
       -0.02802065 0.122521326 -0.0942153 -0.107812576
0002c0 0e ab 9d bd 8d 62 2a bc b1 28 bf bc 4d 4f d5 bd
       -0.07698642 -0.010399473 -0.023334833 -0.10415516
0002d0 44 51 af 3d 92 00 d0 bd e6 72 99 3d e5 da a3 3c
       0.08560422 -0.10156359 0.07492618 0.020001838
0002e0 10 dc c4 3d df 9a da bd 0b 38 18 be dc ff 75 3d
       0.09612286 -0.106740706 -0.14865129 0.06005846
0002f0 de 5f ba bd 05 e1 51 3c d6 11 a7 3d eb b2 e6 bc
       -0.091003165 0.0128099965 0.08157699 -0.028161487
000300 ba 41 48 3d c9 a3 11 be 2d d3 cc bd 8f 08 e0 3d
       0.048890807 -0.14222635 -0.10001216 0.109391324
000310 31 72 ee bd e9 6e d7 3b 27 bc 3a bc 0e c3 93 3d
       -0.11642874 0.006574501 -0.011397398 0.07214938
000320 bb 6d df 3d bc 16 cb bc b8 45 93 bb 69 d1 06 bd
       0.10909601 -0.024791114 -0.004494395 -0.032914553
000330 54 b5 5b bd 43 03 01 bd a7 6a d9 3d 91 c0 f4 bd
       -0.053639725 -0.03149725 0.106160454 -0.119507916
000340 a6 36 c7 bd 11 79 b0 bd 5d 26 06 bc 33 ed 80 bd
       -0.0972722 -0.086168416 -0.008187857 -0.06295242
000350 56 2f 5f bc b1 83 98 bd 8c 68 76 bd f7 2b 4e 3d
       -0.013622126 -0.07446993 -0.060158297 0.050334897
000360 7a e7 02 3e f8 19 26 bd d2 51 29 bc b9 0a ff 3d
       0.12783614 -0.04055211 -0.010334449 0.12453217
000370 1a 01 08 3c 05 f2 15 bd cb 8a 09 3c 41 67 24 bd
       0.008301044 -0.03660776 0.008394907 -0.040137533
000380 75 36 05 bd 00 bb 98 3d e0 2f 9c bd d8 85 26 bd
       -0.032522637 0.074575424 -0.07626319 -0.040654987
000390 ca 13 61 bc 93 07 c2 bd e6 b4 5a bd 81 e7 9c 3d
       -0.013737628 -0.09474101 -0.053395174 0.07661343
0003a0 ab 13 8f 3d 70 66 fd bd 01 d8 8a bc a3 16 b6 3a
       0.06986173 -0.12373054 -0.016948702 0.0013892244
0003b0 39 30 23 bd d0 c8 e6 3d a2 20 ec bd 4e 70 ec bd
       -0.03984091 0.11268771 -0.11529662 -0.11544858
0003c0 e1 6e 31 3d 9a 83 ec bd 0b ba c9 bd 5b ee a3 3d
       0.043318633 -0.115485385 -0.09849938 0.08004447
0003d0 62 6d 7b 3d be e5 86 bd 4d cf 1e bd 3e d2 b1 3c
       0.061383612 -0.065867886 -0.038771916 0.021706697
0003e0 a2 2b e2 3d 55 ba 7c bd 60 f5 c2 3c d0 5c fb 3d
       0.110434785 -0.061701138 0.023798645 0.12273562
0003f0 a8 81 d4 3c 78 8a c2 bd 12 c9 cc bd e9 57 07 bd
       0.025940731 -0.09499067 -0.099992886 -0.033042822

rnn.weight_hh_l0 f4 [64, 64]
000000 76 60 f9 3d f7 ec 9e bc ec b3 69 3b c9 e8 1f 3d
       0.121766016 -0.019400103 0.003566022 0.03904036
000010 52 a9 ad bc 99 eb c3 3d e5 3b db bd 55 b2 38 3b
       -0.021198902 0.09566421 -0.10704783 0.0028182466
000020 83 a4 48 bd 96 4a 7b 3d b4 2e e3 bd 20 d6 84 bd
       -0.048985016 0.061350428 -0.11092892 -0.064861536
000030 fd 79 8b 3c ec 19 77 3c 00 53 05 3d 55 5a d1 bd
       0.017025942 0.015081864 0.032549858 -0.102223076
000040 00 5c 6d 3d 18 f1 68 3c 34 22 d3 bd 22 4e 18 be
       0.057949066 0.0142176375 -0.10309258 -0.14873555
000050 d1 e5 8a 3d 73 d8 d0 bd 30 b4 fd 3d e8 0e c7 3b
       0.06782115 -0.101975344 0.12387884 0.006074775
000060 a0 99 10 bd e1 4a a8 bd a3 4a 88 bc f2 9e 59 bd
       -0.03530276 -0.08217407 -0.016637152 -0.053130098
000070 3a 5b ae bd d6 2d 22 3d 4e cf 55 3d 8c 4d 5e bd
       -0.08513494 0.039594494 0.052199654 -0.054273173
000080 8c 42 88 bd a2 14 d0 3d 50 bb 8f bd f5 98 7c bd
       -0.06653318 0.101601854 -0.07018149 -0.06166931
000090 da 0b a5 3d 0f f4 b3 3d 04 56 d4 3d c0 15 fb 3d
       0.08058901 0.08786785 0.10367969 0.12260008
0000a0 3c aa bf 3a 0b eb 32 3d ab 6f 5a 3d 60 66 e2 bb
       0.0014622877 0.043681186 0.05332915 -0.0069091767
0000b0 1f 73 10 3d f8 e6 e6 bd 04 db a7 bd 86 40 ae bd
       0.035266038 -0.112745225 -0.08196071 -0.085084006
0000c0 b7 bf 1c bc 91 16 7c 3d 4c 61 91 3c 91 60 d4 bd
       -0.009567193 0.06154496 0.01774659 -0.10369981
0000d0 1c 1c d7 bd dd 83 8e bd 84 b2 18 bd e8 70 19 3c
       -0.10503408 -0.06958745 -0.03727962 0.009365298
0000e0 57 e1 ce bc 0a 24 9c 3b 18 cd a1 bd d7 c6 e8 3b
       -0.025253935 0.0047650384 -0.07900447 0.0071037817
0000f0 5d b6 50 bd 1e 8b 75 bd 23 bb e8 3c 6a bc 29 3c
       -0.050955165 -0.059947126 0.028409546 0.010359863
000100 6c 3e cb ba 4f 05 f6 39 3e 5c 05 3d c2 e0 a4 3d
       -0.0015506274 0.00046924732 0.032558672 0.08050682
000110 36 62 08 bd 71 bb 2d 3d a2 79 f2 3d 98 9f 4e bd
       -0.033296786 0.042415086 0.11839606 -0.05044517
000120 af 16 54 3d 83 a6 8c 3d 17 54 67 3d 2d 3a b2 3d
       0.051779445 0.06867697 0.05647668 0.087025024
000130 0c a3 40 3c c2 5a d1 3c 20 c5 43 bc 2b 8e 67 bd
       0.011757623 0.025555972 -0.011948854 -0.056532066
000140 ec 4b ed 3d 0b e1 44 bd 02 e6 b2 3d 8b 70 f1 bc
       0.115867466 -0.04806618 0.08735277 -0.02947261
000150 e8 b8 07 bd de 79 ec 3d 19 49 9d 3d 06 5d fb 3d
       -0.033135325 0.11546682 0.07679958 0.12273602
000160 52 e6 96 3d 8d ba 63 3d 42 0d c0 bd e0 d0 d3 bd
       0.07368149 0.05559783 -0.09377529 -0.10342574
000170 f0 4d cc bd a2 83 fb 3d 02 8d dc 3d 24 40 d8 3d
       -0.09975803 0.12280966 0.107690826 0.10559109
000180 12 0b be 3c 32 d9 9e 3d 1e 63 7c bd 15 b0 84 bd
       0.023198638 0.077562705 -0.061617963 -0.064788975
000190 67 da 99 3d 7c 5c b1 3a de 40 1e bd 47 32 be 3d
       0.0751236 0.0013531591 -0.03863608 0.092869334
0001a0 a2 34 0a bd 01 75 48 3c a2 d7 cc bd 94 f5 74 3d
       -0.0337416 0.012234927 -0.10002066 0.059804514
0001b0 32 4f af 3d 78 19 c1 3d 8a 7d 92 3d 8a 26 a7 bc
       0.08560027 0.09428686 0.07152851 -0.020404119
0001c0 40 57 a1 3d ff 4a b0 3c 29 91 8c bd 27 88 9d bd
       0.0787797 0.021520136 -0.068636246 -0.076919846
0001d0 d7 ef 58 bd 6c 37 a5 bd 9a e3 fa bd da 36 b0 bd
       -0.052963104 -0.080672115 -0.12250443 -0.08604212
0001e0 e3 ec 9a bd e9 8b 85 bd 32 97 3d bd 44 a7 b8 bd
       -0.07564714 -0.06520826 -0.04628677 -0.090162784
0001f0 6d d7 cd 3d 31 56 d8 bd 88 22 c9 3d dc d7 3e 3c
       0.10050855 -0.10563315 0.098210394 0.011648145
000200 db d7 8c 3d 7d fe 4c 3d a5 9a e5 bd a8 61 41 bd
       0.06877109 0.050047386 -0.11211137 -0.047212273
000210 69 04 aa 3d eb 37 0a 3e 11 2f 8d 3a 5d 8f fa bc
       0.083016224 0.13497894 0.0010771473 -0.030585939
000220 3f c5 ca bd b2 ed 97 bd 2f 25 71 3d 04 b4 fd bd
       -0.09900903 -0.07418384 0.05887335 -0.12387851
000230 99 68 f7 bc fb 76 66 bd 58 74 b1 3d 18 8d 73 bb
       -0.030201243 -0.056265812 0.08664769 -0.0037162956
000240 05 76 16 bc 76 7a 4f 3d 6d 30 e5 3c ab c1 aa 3d
       -0.0091834115 0.050653897 0.027977193 0.083377205
000250 07 8f 2b bc e4 bc ea bd f1 48 d3 bd ce 21 a0 3d
       -0.010471112 -0.11461809 -0.10316647 0.07818948
000260 7a 48 5d 3d 9d 11 86 bc 45 65 5f 3d d8 dd 01 3d
       0.054024197 -0.01636582 0.054539938 0.031705707
000270 aa da 3a 3d ab 8e dd bc 32 22 87 bc 02 80 06 3e
       0.04561869 -0.027045568 -0.016495798 0.13134769
000280 cb fb 28 3d 65 db d7 bc 2d 0f ad 39 3c 2a c3 3d
       0.041255753 -0.026349733 0.00033008438 0.0952954
000290 a5 84 b5 bd 22 34 79 bd be e4 c8 bd 4b 9f b7 3d
       -0.088631906 -0.060840733 -0.09809254 0.089659296
0002a0 12 23 f4 3b 12 6a 32 bd 06 7a 18 bb fd 4f af 3c
       0.00745047 -0.043558188 -0.002326609 0.021400446
0002b0 aa 90 bd 3d 72 77 2d bd 38 0e 82 bd 5f 93 9c 3d
       0.09256108 -0.04235024 -0.06350368 0.07645296
0002c0 7c 24 f7 bd db ef 89 bd 8c 0e bd 3d c2 45 b3 bc
       -0.12067506 -0.06735202 0.0923129 -0.021883849
0002d0 82 ca c2 3a de 9b b9 bd 8a a2 d0 3d ce 5f e1 3c
       0.0014861377 -0.090629324 0.10187252 0.027511504
0002e0 45 3b 13 bd 58 42 31 bd d4 d5 d0 bd 3f 56 f0 bd
       -0.035945196 -0.04327616 -0.101970345 -0.117352
0002f0 c3 82 ca bc 75 7a d6 3d 8a b1 74 3b de 85 c2 3d
       -0.024720555 0.104725756 0.0037337267 0.094981894
000300 a5 d9 70 bd 7f 2d 4b bd df 65 a7 3d 0f 31 ae bd
       -0.058801312 -0.049603935 0.08173727 -0.08505451
000310 0c 6c cf bd 6a d2 d0 3d a7 0c 3f bd c7 80 e4 3d
       -0.1012803 0.10196383 -0.046642926 0.11157375
000320 f1 27 2b bd 96 58 b0 bd fc 3d 64 3d 93 69 99 bd
       -0.041786138 -0.086106464 0.055723175 -0.0749084
000330 fe 21 24 3d 14 21 d3 bd 30 80 cc 3d de 9c 5f bd
       0.04007148 -0.103090435 0.09985387 -0.05459296
000340 8e 5a 94 bd 39 8c d8 3d 2a 74 05 3d 52 2e c0 3c
       -0.072438344 0.1057362 0.032581486 0.023459587
000350 a2 08 99 bc 25 64 47 bd d8 09 27 bd 54 e0 8b 3d
       -0.018680874 -0.04867949 -0.040780872 0.068298966
000360 fa b2 3c 3d 4b c0 e9 bd 20 35 2b bd 89 04 b5 3d
       0.046069123 -0.1141363 -0.04179871 0.08838756
000370 ec 5a 66 3a 8b 13 c9 3d 10 30 91 bd c5 bb e6 bd
       0.0008787352 0.09818181 -0.07089245 -0.11266283
000380 3f a7 8b 3d 7d ba 56 bc d7 33 86 bd d7 86 93 3c
       0.06819009 -0.013105986 -0.065528564 0.018008633
000390 40 6b c3 bd 23 fb 68 bb ba bb 21 3d 8d 02 da 3d
       -0.09541941 -0.003555008 0.03948567 0.10645018
0003a0 2c 2a a2 bd 45 34 0b bd 89 2a c6 3d 77 d2 c7 bd
       -0.079182 -0.033985395 0.09676082 -0.0975694
0003b0 2b 3a 95 bc a4 23 e5 3d 80 94 88 bd d2 86 a1 bd
       -0.018216213 0.111884385 -0.06668949 -0.07887043
0003c0 67 96 a8 3d ed 92 9f bc a6 0e 00 3d 9f 57 a3 bc
       0.08231812 -0.01947924 0.03126397 -0.019939242
0003d0 d7 93 79 3d 62 1d 4d bb 23 35 93 3d 75 b1 4c 3d
       0.060932007 -0.003129803 0.071878694 0.049973924
0003e0 5e 56 d9 bc 89 ad 97 bd 1f 97 24 3b bf d1 1c 3d
       -0.02653044 -0.07406146 0.002511449 0.038285967
0003f0 87 76 06 bd c2 b3 8d bb ff 0f 67 3d b5 7e 09 be
       -0.03282788 -0.0043244073 0.05641174 -0.13427241

rnn.bias_ih_l0 f4 [64]
000000 0b af 3d 3d d3 b7 6e 3c e6 42 6b 3d 1a 12 ab 3b
       0.046309512 0.014570194 0.057436846 0.0052206637
000010 65 d1 70 bd 4b 59 e8 3c 61 77 fa bd ae 66 5b 3d
       -0.058793444 0.02836289 -0.12229801 0.05356472
000020 da e7 92 3d 72 6b 34 bd fb 8a 12 bd 71 82 ab 3c
       0.071731284 -0.04404778 -0.035777073 0.020936223
000030 83 f3 8d bc a8 f0 c2 3d 47 6e 85 bc e5 82 3f bd
       -0.01732803 0.09518558 -0.016287936 -0.04675569
000040 a1 6a ac bd db a6 7a 3c 15 0e ff 3a 75 ab ef bd
       -0.08418775 0.0152985705 0.0019459153 -0.11702625
000050 77 0e 8b bd d6 4c 93 bc df 9f 9b bc b6 b5 d7 3d
       -0.06789868 -0.017980974 -0.01899713 0.105327055
000060 91 7e 3a 3d 6a 31 e3 3d fb c1 e2 bd 31 5a 64 bd
       0.04553086 0.11093409 -0.11072155 -0.055750076
000070 d2 15 c9 bd bc 2c 0f 3b 13 4b 52 3d b0 35 b4 3d
       -0.09818615 0.0021846732 0.051341128 0.087993026
000080 5a 7e e6 3d 53 cc 97 bc 24 22 b4 bd 5c 5b ed bc
       0.112545684 -0.018530047 -0.08795574 -0.028974228
000090 88 1f 5a 3d c0 c6 bc 3d d4 c6 be bd f3 1e f3 bd
       0.053252727 0.09217596 -0.09315267 -0.118711375
0000a0 00 ef 5b 3d 30 15 c9 3d e5 e8 a6 bc f0 f8 e9 bd
       0.053694725 0.09818494 -0.020374725 -0.11424434
0000b0 03 ed 33 3d 1e 92 b5 3c 47 39 36 3b 32 20 f6 bc
       0.043927204 0.0221644 0.0027805136 -0.030044649
0000c0 47 89 7d 3c a7 99 a3 3c f7 f5 b9 bd 6c ab a3 bc
       0.015474624 0.019970728 -0.09080117 -0.019979201
0000d0 d9 05 d3 bc 5b 17 21 bd 93 a7 d8 bd 65 9d e1 3d
       -0.025759624 -0.039328914 -0.10578837 0.11016349
0000e0 e8 cc a3 bc 4f 68 0e bc 89 6c e5 3c f2 62 d9 bc
       -0.019995168 -0.008691861 0.028005855 -0.026536439
0000f0 65 a8 af bd 31 de ba 3b 23 fe cb bd 9b bc e6 3d
       -0.085770406 0.005702757 -0.09960582 0.112664424

rnn.bias_hh_l0 f4 [64]
000000 41 5c 20 bd 69 d1 7c bd 98 03 a0 3d 22 c5 ed bd
       -0.03915048 -0.061723147 0.078131855 -0.11609866
000010 9a d0 82 bd 9f 5f 1c bb 15 ca 96 bd 77 ae 9f bb
       -0.06387444 -0.0023860706 -0.07362763 -0.0048730928
000020 96 31 1f bd 4b 7f 33 bc f3 43 21 bd 93 b3 f1 bd
       -0.03886565 -0.010955642 -0.039371442 -0.11801829
000030 5c 53 a5 3d 83 e7 df bd 45 b7 82 3c a7 b4 e1 3d
       0.0807254 -0.10932829 0.01595653 0.11020785
000040 7d e1 79 3d c3 21 ec 3d 77 eb 88 bd 06 12 44 bd
       0.061006058 0.11529877 -0.06685536 -0.04786875
000050 03 1e 3c bd d0 5e 43 3d 0a 55 99 3d 2c c0 74 3c
       -0.04592706 0.047697842 0.07486923 0.0149383955
000060 2e 73 4a bc 91 d7 fc 3d 53 11 6a bd a7 64 55 bd
       -0.012356563 0.123458035 -0.057145428 -0.052097943
000070 3a 89 e1 bb 4d 2a 2a 3d 5b ad ea 3d b5 11 dd bc
       -0.0068828138 0.041544247 0.11458846 -0.026985982
000080 ad 13 53 bd ac ae a1 3d 8d c5 e5 3d 08 d6 30 bc
       -0.051532436 0.07894644 0.112193204 -0.0107932165
000090 1d ee c5 bd ff b8 05 bd d1 ff fb 3d 6e 88 2c 3d
       -0.09664557 -0.03264713 0.123046525 0.042122297
0000a0 a9 d1 1d bd 68 02 e1 bd 21 8d 97 bd 82 57 82 bb
       -0.038530026 -0.10986787 -0.07399965 -0.003977717
0000b0 21 07 de 3c 3e 5c ec 3c ac 5b 58 bd ef 1e b6 3c
       0.027103009 0.028852578 -0.0528218 0.022231547
0000c0 ed 7e 8d bd 68 e1 dd 3d 7b d5 b8 3d 00 68 b5 bd
       -0.06908975 0.108340085 0.09025093 -0.08857727
0000d0 d0 f4 58 bd 49 c3 95 3a a4 fb fa bc 0c 35 99 bd
       -0.052967846 0.0011425997 -0.03063757 -0.07480821
0000e0 a0 ae de 3d 58 32 9b bd ed 92 2a 3d b6 2f e4 bd
       0.10873151 -0.07577962 0.041644026 -0.11141913
0000f0 0a fc ec bd 65 e7 a8 bd e1 cf 45 3d c6 76 e2 bd
       -0.1157151 -0.0824726 0.048293952 -0.110578105

rnn.weight_ih_l0_reverse f4 [64, 5]
000000 fc 47 fa 39 ea e6 06 3e 07 ec 59 3c 93 04 56 bd
       0.00047737348 0.13174024 0.013300902 -0.052250456
000010 77 f0 b8 3d cb 0d 5d 3d ec 20 cf 3c 29 02 7c bb
       0.0903024 0.053968232 0.025284253 -0.0038453436
000020 90 ff 81 3d 2c 03 b6 3c 0d 53 08 bc 90 91 3c 3d
       0.06347573 0.02221831 -0.008320582 0.046037257
000030 7b 69 51 3d d8 6c 4d 3d e5 bc 45 bd cc a9 f5 3d
       0.051125985 0.05015263 -0.048275847 0.11995277
000040 2d 72 80 bc 0a 8b 4f 3d 72 12 32 3d 39 ae a4 bd
       -0.015679443 0.050669707 0.043474622 -0.08041043
000050 1a 46 4c bd b5 18 c7 3d 21 84 90 bd 67 1d 3f 3c
       -0.04987154 0.09721509 -0.070564516 0.011664725
000060 a0 2f a8 bd cf e9 ae bd bb ce 55 bd d3 18 15 3e
       -0.08212209 -0.08540689 -0.052199107 0.14560251
000070 09 6d 1f 3e 84 09 0a be 3b 16 fa bd 1b 7f 80 3b
       0.15568937 -0.13480192 -0.122112714 0.003921402
000080 37 9a ad 3d ca 97 bc 3d c0 3b 85 3d 16 a5 20 3d
       0.0847668 0.09208639 0.06505537 0.03921994
000090 ce 2d 87 3d 38 ee ab bd c8 d1 e4 3d d2 76 df bd
       0.066005334 -0.08395046 0.11172825 -0.10911335
0000a0 94 58 1f bd f9 3d 9d 3c 47 eb 9c bb c4 56 1f bc
       -0.038902834 0.01919459 -0.0047887894 -0.009725276
0000b0 17 d9 65 bc dd f2 07 3c 62 1a bc 3d 46 b9 05 bd
       -0.014028809 0.008297649 0.091847196 -0.032647394
0000c0 81 e2 55 bc 26 46 60 3d 91 f3 b1 3d ce df ea 3d
       -0.013054491 0.0547544 0.08689035 0.114684686
0000d0 da 9b e7 bd 7f f0 e8 3d ca 3e 18 bd ad e6 ed bd
       -0.11309023 0.11373996 -0.037169255 -0.116162635
0000e0 4c 6d cf 3d 92 d1 f7 bd f8 9e 8a bd 61 c1 d9 bc
       0.101282686 -0.12100519 -0.06768602 -0.026581468
0000f0 96 cf 89 bc 4a 9b 19 3d 4a 1d 1d 3c 53 a5 af 3d
       -0.016822618 0.03750161 0.009589503 0.08576455
000100 d7 d3 fb 3c b2 9d 86 3c d0 ba 01 3e d7 3a 39 bd
       0.030740662 0.016432617 0.1266892 -0.04522213
000110 d0 4e 7f 3d ae d4 19 3d 17 72 01 3e 23 a2 00 bd
       0.06233102 0.037556343 0.12641178 -0.031404626
000120 51 cb f7 bb 80 53 d9 bd 9f ca 88 3d 35 04 73 3d
       -0.007562079 -0.106116295 0.06679272 0.059330184
000130 d8 38 84 bc 4e ca cf 3d 31 2a cc 3b 13 c9 e4 3c
       -0.016140386 0.101460084 0.0062306155 0.02792791
000140 df 79 c4 3b 3a 8c c2 bd 5e 72 b0 3d 24 6d d4 bc
       0.0059959735 -0.09499402 0.08615564 -0.025930949
000150 c1 6d ee 3d 22 3e ca 3d af 13 4d bb 52 f8 fa 3b
       0.11642028 0.09875132 -0.003129225 0.0076589966
000160 c9 ea 92 3c c9 3e fd 3c 45 d9 6a bd a9 5f 87 bd
       0.01793422 0.030913727 -0.05733611 -0.066100426
000170 31 a5 df bd b7 1f 77 bd 34 d7 de 3d 54 7a ec 3b
       -0.1092018 -0.06033298 0.108808905 0.007216731
000180 f6 c4 f3 3d 23 35 e4 bc 5e 4e dd 3c 9b ff eb 3d
       0.11902802 -0.027857369 0.027014907 0.11523362
000190 f8 67 bd bd 13 56 8f 3d 15 23 8d 3d e4 b4 fa 3d
       -0.09248346 0.06998839 0.06891457 0.122415334
0001a0 2c aa dd 3d c0 9d e7 3b 49 cf b5 3d 98 ff a4 bc
       0.10823473 0.007068366 0.08877427 -0.020141408
0001b0 dd 37 78 bb f3 2e 9d bd 53 b2 d5 ba fe b6 a9 bd
       -0.0037875094 -0.076749705 -0.0016303755 -0.08286856
0001c0 4d df f3 bc d1 9b 09 3e 57 4f da bd c0 c3 c6 bd
       -0.029769564 0.13438345 -0.10659664 -0.09705305
0001d0 4a c3 ff bc 29 31 bf 3d 6b da d6 3d e4 d4 da 3d
       -0.03122105 0.093355484 0.10490879 0.10685137
0001e0 19 cc a9 bd 91 3f e8 bd 36 f6 f2 bd 6a aa 46 bd
       -0.08290882 -0.11340249 -0.11863367 -0.048502363
0001f0 37 36 8f bd 2a e6 38 3d 85 02 05 3d 10 8c 8f bd
       -0.069927625 0.045141377 0.032473106 -0.07009137
000200 69 23 d3 3d cc c4 f9 3d a8 07 e8 bc 15 07 68 bd
       0.10309488 0.12195739 -0.028323963 -0.05664738
000210 bb e4 44 bc b6 d3 82 bd d4 87 10 bd 54 13 03 3b
       -0.012017424 -0.06388037 -0.035285786 0.0020000534
000220 7c f0 e2 3d e7 b9 48 bd 9c 54 0d 3d 56 ab b2 bc
       0.11081025 -0.049005415 0.034504518 -0.021810215
000230 6f c4 9c bc 95 6b d2 3d 2f e8 19 3d 55 56 e2 bd
       -0.019136636 0.10274426 0.037574943 -0.11051623
000240 15 71 8c bd 03 59 5e 3d 7f d1 fa bc 57 13 c5 bd
       -0.06857506 0.054284107 -0.030617474 -0.096228294
000250 f7 8e e3 3d cc 14 b1 bd 95 d5 8d 3b 2d bc d0 bd
       0.11111253 -0.08646545 0.0043284395 -0.10192142
000260 71 55 bb bd 4d 01 ea 3b 0f 52 1b 3b 0f 15 a7 3d
       -0.09147156 0.0071412683 0.0023700034 0.081583135
000270 2a 96 2f bd 9c fc 00 3e 0c 06 7f 3c aa c2 c1 3d
       -0.042867817 0.12596363 0.0155654065 0.09460957
000280 c2 52 f0 3d 2c 42 07 3d ca 72 e1 3d f8 79 30 bd
       0.11734535 0.03302209 0.110082224 -0.04308507
000290 88 e9 81 3d d1 71 bf 3d f4 2a cc 3c 1b 15 53 bd
       0.06343371 0.09347881 0.024922825 -0.0515338
0002a0 81 34 bf bd d5 d4 db 3b 5e 7a 8d bd 6a 25 8f 3d
       -0.09336186 0.006708721 -0.06908105 0.06989558
0002b0 0a 42 15 bd a3 d4 11 bd 84 37 f5 3d 10 e8 9a 3d
       -0.036439933 -0.035603177 0.119734794 0.07563794
0002c0 1e 2e cd bd 7d 74 9f 3c 75 0d d9 3d 25 71 a5 3d
       -0.10018562 0.019464726 0.1059827 0.08078221
0002d0 ed c4 8a 3d e8 c8 f4 bb f1 5b 0d 3d e8 e3 d9 bd
       0.06775842 -0.007470239 0.03451151 -0.10639173
0002e0 eb 69 02 3d b2 9c 66 3d 6c 2b 7a bd c3 29 9b bc
       0.031839292 0.05630178 -0.061076567 -0.018940812
0002f0 8b 32 1e 3d d0 45 c1 3d 6f aa f9 bd dd 2a 0a be
       0.03862242 0.09437144 -0.12190711 -0.13492914
000300 71 26 a1 3d 55 6a ac bb 51 5b 6f 3d 53 fa 47 3d
       0.0786866 -0.005261699 0.058436695 0.048822712
000310 b7 c6 33 3c ec c5 b6 bd d5 e0 bb 3d c9 e7 81 bc
       0.01097267 -0.08924469 0.09173743 -0.015857594
000320 d4 1e 8d 3d 81 bd be bd d5 46 c0 bb bb 42 e4 bd
       0.068906456 -0.09313489 -0.005867819 -0.1114554
000330 eb 03 df 3c 10 58 e8 bc 86 11 77 bc d1 26 1c bd
       0.027223548 -0.028362304 -0.0150798615 -0.038122956
000340 a0 ab 8a bd c4 a8 e1 3b 81 14 11 bd 86 28 6c 3a
       -0.06771016 0.0068865735 -0.035419945 0.0009008724
000350 8d ad 05 be 2b 06 fd bd b1 14 7c 3d 23 70 43 bd
       -0.13054486 -0.12354692 0.06154317 -0.047714364
000360 25 20 86 bd 63 dc b3 3d 97 79 13 3d a6 d8 81 bd
       -0.065491 0.0878227 0.03600463 -0.063401505
000370 da c9 f5 bc da eb c7 bd 47 e1 48 bd ea e2 b7 bc
       -0.030003477 -0.09761782 -0.049042966 -0.022447068
000380 16 9d 46 3c 1e a5 af bc f5 d3 f1 bc 9b 61 b4 3d
       0.012122413 -0.021441039 -0.029520014 0.08807679
000390 17 a8 5a 3d b7 bc dd bd 41 48 5f 3d a8 b5 97 bd
       0.05338296 -0.1082701 0.054512266 -0.07407695
0003a0 12 ac a6 3d 93 4f 8c 3c 93 72 b2 3d 76 1d d8 bd
       0.081382886 0.017127788 0.087132595 -0.10552494
0003b0 13 cf d7 3d 5e 23 0d 3d 82 af bb 3d 83 e4 6e 3d
       0.10537543 0.034457557 0.09164335 0.058323395
0003c0 2e 35 f0 bd 9e 37 48 bd 7d 85 87 bd 97 69 4a bd
       -0.11728893 -0.048881166 -0.06617258 -0.049417105
0003d0 81 c5 ac bb c0 a1 5b 3d 1b cd 84 bd bf 8d 96 bc
       -0.0052725677 0.053621054 -0.06484433 -0.018378137
0003e0 d0 79 79 3b 0d 53 d4 3d 03 b8 b1 bd b2 e1 6f bd
       0.003806699 0.10367403 -0.086776756 -0.05856485
0003f0 07 dc 66 bc 34 b5 a8 bc d5 b1 e1 3d d6 7b be 3d
       -0.014090545 -0.020594217 0.11020247 0.093009636

rnn.weight_hh_l0_reverse f4 [64, 64]
000000 1b 59 e9 bd e1 00 0a bd 53 a1 7b 3d 16 37 d2 bd
       -0.11393949 -0.033692244 0.061433148 -0.10264413
000010 ab fb 93 bd 62 ba d1 bd 8c 6d 9e 3d 83 62 eb bd
       -0.07225736 -0.10240628 0.07735738 -0.11493399
000020 b9 63 b5 3d ca 19 a2 bd 25 3f a4 bb ac 65 f6 bd
       0.08856911 -0.07915075 -0.00501241 -0.12031111
000030 1d 10 ea bd 77 fd 57 bd 70 52 bf 3d f2 0f 9e bd
       -0.114288546 -0.052731957 0.093418956 -0.07717885
000040 a8 ff 28 3c e4 05 8c 3c 2d d6 cc 3c 91 e9 a1 bd
       0.010314859 0.017092653 0.02500447 -0.079058774
000050 88 4a c8 3d f5 a6 01 be 09 89 74 bc f7 86 36 bd
       0.09779841 -0.12661345 -0.01492525 -0.044562306
000060 05 f0 bc 3d d3 05 eb bd 50 ff 9b 3d 6c 09 5c bd
       0.092254676 -0.1147572 0.07617056 -0.053719923
000070 1a 24 af 3d 74 11 fd bb c8 7e da bd e6 5c ef bc
       0.08551808 -0.007723028 -0.10668713 -0.029219102
000080 7d ab dd 3d 93 06 9e 3d 11 7d 8e bd ea a8 40 bd
       0.108237244 0.07716098 -0.06957448 -0.04703609
000090 c2 c5 c5 bd ec 2b d0 bc 71 4f eb bd 8a 49 a4 3c
       -0.0965686 -0.025411569 -0.114897616 0.020054597
0000a0 cd 7d 42 bc 21 44 2a bd 81 2f 94 3d 43 a8 a9 bd
       -0.011870814 -0.04156888 0.07235623 -0.082840465
0000b0 e2 5a d9 bd 45 24 ee bc 54 4f 24 ba c1 0c 5c bd
       -0.10613038 -0.029070029 -0.00062679243 -0.0537231
0000c0 b3 1b be 3d e8 84 0a 3e 7b 0a b1 bc f6 d9 43 bd
       0.09282627 0.13527262 -0.021611443 -0.047815286
0000d0 3d 10 a6 3c a6 65 1e 3d d9 d4 ab bd 7c 74 00 3d
       0.020271415 0.03867116 -0.08390207 0.03136109
0000e0 14 d7 0d bd c2 75 bb 3d e9 67 de bd b0 86 73 bc
       -0.034628943 0.0915332 -0.10859663 -0.014863655
0000f0 2b 7d 00 3d 2a 3e ae 3d 55 23 e9 bd cc 1e 67 bd
       0.03136937 0.085079506 -0.11383692 -0.056425855
000100 b9 98 e8 bc b0 57 57 3c 33 51 ea bd 8d e6 3c 3d
       -0.028393136 0.013143465 -0.11441269 0.046118308
000110 c7 13 c3 3d ce 62 db 3b 6b 43 92 3d ed 69 d4 3d
       0.095252566 0.006695128 0.07141765 0.10371766
000120 4d 3a 2c bd af 95 c2 bc fd 56 fa 3d 71 e2 a4 3d
       -0.042047787 -0.023753015 0.12223623 0.08051003
000130 d9 cc 13 bd 77 d0 4f bd 49 f2 92 3c e5 bf 4e bd
       -0.03608403 -0.050735917 0.017937796 -0.050475974
000140 dd c3 69 bd 16 ef 99 3d 3b f5 c1 3d d2 43 7c bd
       -0.057071555 0.07516305 0.09470602 -0.061588116
000150 a3 0c 25 bc 91 da ed bc 0e 9a 4a 3d 6e 56 b0 3c
       -0.010073814 -0.029034885 0.049463324 0.021525588
000160 42 88 8b bd 2d 69 26 bd 16 11 5b bd ff 0d e9 bc
       -0.068130985 -0.040627647 -0.05348309 -0.028449057
000170 e3 71 91 3d 2a 06 3c 3d 48 76 90 bd 76 28 a1 3d
       0.071018 0.045904316 -0.0705381 0.078690454
000180 37 7a b0 3d 06 f2 9c 3b ca c9 3b bd 54 e6 c0 3d
       0.08617061 0.0047895936 -0.045846738 0.094189316
000190 0c f3 f4 3d 6b 0d 9f bc 26 46 a1 3d 96 c3 98 ba
       0.1196042 -0.019415578 0.07874708 -0.0011654969
0001a0 98 5f a2 bd a8 12 93 bd c4 f6 94 bb 24 c0 d6 bd
       -0.07928389 -0.07181293 -0.0045460183 -0.10485867
0001b0 38 42 de 3d 6f 90 1a bd 1c 02 eb bd ba 75 03 be
       0.10852474 -0.0377354 -0.11475012 -0.12837878
0001c0 ae c1 dc 3c bd 79 98 3d 00 81 96 3d 68 97 28 bd
       0.026947822 0.07445095 0.073488235 -0.041160017
0001d0 d6 5c d6 bc a2 c7 cf bd 0a 72 98 bd df 91 63 bc
       -0.026167314 -0.10145499 -0.07443626 -0.013889759
0001e0 3c ba 0e bc 03 3b a4 bd 43 72 0d be 4e bc d1 bd
       -0.008711394 -0.08019068 -0.13813119 -0.102409944
0001f0 91 9d b5 3c ec dc db bd ab 73 b8 3b 06 04 54 bd
       0.02216986 -0.10735497 0.005629023 -0.05176165
000200 2c b8 90 bd 37 f7 44 3d bf 8d 04 3e a3 09 65 bd
       -0.07066378 0.048087325 0.12944697 -0.055917393
000210 39 56 bd 3c f2 ff ee 3c 35 03 1f 3d 0c 92 93 3d
       0.023112403 0.029174779 0.038821418 0.072055906
000220 6e 60 98 bd c4 35 d4 bd 69 ca 7f bd 9f 83 9c bd
       -0.074402675 -0.103618175 -0.062448893 -0.07642292
000230 d6 90 08 3e ec c0 0a 3e c3 a7 19 bd e5 9e ea bd
       0.133365 0.13550156 -0.037513506 -0.11456088
000240 2f d6 31 bd 44 c6 b3 3c 29 52 82 3d a5 51 f0 3d
       -0.043417152 0.021945126 0.06363327 0.117343225
000250 29 b6 67 bd 57 ae 4f bc e8 e0 1c bb 7f e7 8c bc
       -0.056570206 -0.012675843 -0.0023937766 -0.01720023
000260 32 0d 0a 3d 7b 71 a2 3b d9 09 88 3d 03 81 e4 3d
       0.03370399 0.0049573756 0.06642503 0.111574195
000270 cd 51 f9 3d 61 ae cc 3d 2b b3 a0 bd 8b 7a e7 3c
       0.121738054 0.09994198 -0.078466736 0.028256675
000280 96 30 ff 3c 4c e1 82 3d e7 c5 8a 3d bf ba 28 bc
       0.031151097 0.06390628 0.06776028 -0.01029843
000290 d2 9a 0a be c9 44 42 bb 23 c6 a6 3d 56 a2 7f bd
       -0.13535622 -0.002964305 0.0814326 -0.062410675
0002a0 f4 43 47 3c c8 bd fe bc 33 28 da bd 86 52 c6 bb
       0.012162197 -0.031096354 -0.10652199 -0.006052318
0002b0 45 c3 42 3d f3 43 bf 3d a6 26 9d bc 20 b9 84 3d
       0.047549505 0.09339132 -0.019183468 0.06480622
0002c0 39 6b 02 be 09 52 e8 bd f8 b9 c4 bb 3c d0 8a bc
       -0.12736215 -0.11343772 -0.0060036145 -0.016944997
0002d0 2e fd 90 3d 5d f1 27 3d d8 bc 2f 3c ed e8 69 3d
       0.0707954 0.041001666 0.010726176 0.0571069
0002e0 97 a1 bb bc 5b 51 c3 bd 97 38 b3 3d 7c 81 34 3d
       -0.0229042 -0.09537002 0.08751028 0.0440688
0002f0 62 63 90 3c 20 f3 f6 3d cf 69 e4 bb f9 10 d7 bd
       0.017625514 0.12058091 -0.006970621 -0.10501284
000300 e6 12 bc bd 24 6f f6 3c 8b 72 b4 bd 3d 50 c3 3b
       -0.09183292 0.030082293 -0.0881091 0.005960493
000310 3a eb fe bd bd a6 67 bd 73 eb 88 bc 8d d3 ea 3d
       -0.1244721 -0.0565555 -0.016713833 0.11466131
000320 61 31 3c 3c fc 34 6c 3c 98 cc a8 bd e1 b2 9c 3d
       0.011486382 0.014416929 -0.08242148 0.07651306
000330 55 c0 b2 bd 88 d5 43 3d 8f 56 8c 3c 53 e7 e7 bd
       -0.08728091 0.04781106 0.017131118 -0.113234185
000340 21 46 e3 bd b5 15 a4 ba b3 09 85 bd 18 3e 05 be
       -0.110973604 -0.0012518676 -0.064959906 -0.13011968
000350 09 53 56 3d 91 b1 c8 3c b7 77 36 bc c6 2c 73 bd
       0.052325282 0.024498733 -0.011136941 -0.05936887
000360 d8 2b 78 bc 04 92 67 bd cd f7 f4 3d 1d d9 fa bd
       -0.015147172 -0.056535736 0.11961327 -0.12248442
000370 0a a6 cd 39 78 56 cd bd ae b8 c1 bd 52 30 30 3d
       0.00039224356 -0.10026258 -0.09459053 0.04301483
000380 0a 97 d5 bd f6 7d de 3d 72 e1 6d bb bd a0 b1 bd
       -0.10429199 0.10863869 -0.0036297706 -0.086732365
000390 6a b4 a8 bd 42 71 36 bd 07 cf d3 3d b7 6b 86 3b
       -0.08237536 -0.044541605 0.10342222 0.004102196
0003a0 32 56 4a bd b7 a8 a4 3c cd f9 cf 3d cc 79 08 3b
       -0.04939861 0.02009998 0.101550676 0.002082455
0003b0 5f e6 e9 bb 67 06 e6 3d c1 bd fe 3d 0f 76 32 bd
       -0.007138058 0.1123169 0.124385364 -0.04356962
0003c0 19 d5 9c 3d 1c a2 e3 3d 7f 66 c1 b9 90 d2 d2 3d
       0.07657833 0.11114904 -0.00036888194 0.10294068
0003d0 b6 65 8b 3d 33 0b b4 3b b3 20 d6 bc 89 50 c5 3d
       0.06806509 0.005494499 -0.02613864 0.096345015
0003e0 5a c2 d6 3d f4 95 86 3c ab ad 84 bd d4 3c 47 3d
       0.10486288 0.016428925 -0.06478437 0.048641995
0003f0 97 28 ce bd 18 dc 48 3c b1 a4 b8 3d 47 94 6d 3b
       -0.10066336 0.012259506 0.090157874 0.003625171

rnn.bias_ih_l0_reverse f4 [64]
000000 ce 36 94 3d 4a d9 88 bd 63 48 a6 3b 8f 24 c0 bc
       0.07237016 -0.066820696 0.005074547 -0.023454932
000010 a3 f9 42 bc b2 4b 26 bc b7 c6 cf bc 06 94 e4 3d
       -0.011900338 -0.010149883 -0.02536331 0.11161046
000020 12 6b 09 bd 44 c6 32 bc 34 12 a0 bc d1 d1 cf bd
       -0.033549376 -0.010911528 -0.01953993 -0.10147441
000030 41 16 49 bd ad 0f c4 bc 6d 1e b4 bd 17 a8 80 bd
       -0.04909349 -0.023933256 -0.08794866 -0.062820606
000040 6d 57 5b bd d7 63 46 bd f0 94 c7 bd d5 58 3f bd
       -0.053550173 -0.04843506 -0.097452044 -0.046715576
000050 17 a1 b2 3d 77 41 f2 3d 63 7c 10 bd c4 b2 bc bd
       0.08722132 0.11828893 -0.035274874 -0.09213784
000060 98 2d ea 3c d3 ff b5 3c 26 1c 6a 3d 1b 20 8c 3d
       0.028586194 0.022216713 0.05715575 0.06842061
000070 56 c8 b2 bd c2 75 cd bd 3d bf a7 bd 2f da 85 bd
       -0.08729617 -0.10032226 -0.08190773 -0.06535756
000080 38 4b 8c bd 26 05 8a 3d ee bc 9a bd 53 d0 66 bc
       -0.06850284 0.06739263 -0.07555567 -0.014087754
000090 a5 b3 ed 3d d3 16 5c bd bc ac 4c 3d 6f d6 ee bd
       0.1160653 -0.053732704 0.04996942 -0.11661994
0000a0 95 4e be 3d ec 72 17 bc 4f 58 98 3c 2d 16 ad 3d
       0.09292332 -0.009243708 0.018596796 0.08451495
0000b0 01 8c 81 3d e1 67 3c bc 8e 48 9a bd 7c ac b8 3c
       0.06325532 -0.011499376 -0.0753337 0.022543184
0000c0 05 26 bd 3d aa 4d 9d bd ab 40 5e bd 65 cd ee bd
       0.09235767 -0.07680829 -0.05426089 -0.1166027
0000d0 94 b4 8d 3d 9c 9a 9c 3d 46 67 64 3d be 85 cb 3d
       0.06919208 0.07646677 0.05576255 0.09937619
0000e0 4d 26 a8 bd c7 0a d3 3d 49 81 c9 3c ba 45 41 bd
       -0.0821043 0.1030479 0.02459778 -0.047185637
0000f0 22 92 c4 bd 8d 9e d9 bd 43 de a0 3d 4d 48 e1 3d
       -0.09598185 -0.10625944 0.07854893 0.110001184

rnn.bias_hh_l0_reverse f4 [64]
000000 cc bb d6 3d 10 3f c0 bd 2b b0 94 3d 00 5f ba bd
       0.10485038 -0.09387028 0.07260164 -0.09100151
000010 82 8d a3 3d e3 2b eb bc e8 91 c3 bd a3 a8 c7 3b
       0.07985975 -0.02870745 -0.09549314 0.006093101
000020 93 ea f5 3c f5 fa 6e bd 72 5d 8a 3d ba 46 33 bd
       0.03001908 -0.0583448 0.067561045 -0.043768622
000030 39 f2 c4 bd 10 0f 8f 3d b4 fa c2 3d 82 fe 8e bd
       -0.09616513 0.06985295 0.09520474 -0.06982137
000040 1b 86 00 be ee 72 18 3d 90 f4 68 bd c0 f4 b6 bd
       -0.12551157 0.03721898 -0.056873858 -0.08933401
000050 41 92 8a 3d 7b f1 8e 3c e3 31 0c bd 52 b8 d2 3d
       0.06766177 0.017449131 -0.034227263 0.102890626
000060 e9 e6 bf bc 71 28 e4 3b 96 a0 a6 3d 61 ff 7a 3c
       -0.023425536 0.006962829 0.08136098 0.015319676
000070 3e 20 10 3d 0c 7c ca 3d ed 2d 45 3c d5 4e a1 3c
       0.035187 0.09886941 0.012034875 0.01969091
000080 2c 77 3b 3d e8 dd a7 3d d9 d6 ea bc e5 d9 b5 3d
       0.045767948 0.08196622 -0.0286669 0.08879451
000090 9d 58 8c 3d f9 d4 ab bd c0 fd 23 3d ef fd df 3c
       0.06852839 -0.08390231 0.040036917 0.027342765
0000a0 be fe be bd 1d b3 2c 3d 84 20 6f bb ae ef af 3c
       -0.09325932 0.042163003 -0.0036487887 0.021476593
0000b0 e1 b8 ab 3d 7c 32 55 bd ad 45 d3 3d 6b a7 92 bd
       0.08384872 -0.0520501 0.10316024 -0.07160839
0000c0 f5 da c1 bc 5a c6 32 3d 75 b7 cf bd c5 7b 41 bc
       -0.023663977 0.043646194 -0.101424135 -0.011809294
0000d0 ee 1a ae bd e7 44 09 bd 2b 66 c8 3d 82 d8 ec bd
       -0.0850123 -0.033512976 0.09785112 -0.11564733
0000e0 20 f0 ec 3b c4 3b e9 3d 51 c3 64 3d ed 8e ec bd
       0.0072307736 0.113883525 0.05585033 -0.115506984
0000f0 28 aa ea 3d c7 6b 77 bc ff 40 c1 bd 08 8d 8f 3d
       0.11458236 -0.01510138 -0.09436225 0.070093215

rnn.weight_ih_l1 f4 [64, 128]
000000 31 bd 60 3d 01 ad 03 bb 6a 97 ea bc 0d c3 99 3d
       0.054867927 -0.0020092132 -0.028636653 0.07507906
000010 26 6c e1 ba 69 26 28 bc cf 0c c5 3d 89 9f c1 bd
       -0.0017198368 -0.010263064 0.09621584 -0.09454257
000020 fe 52 94 bd d0 0c a4 3c 47 e7 76 bd d4 c7 48 3d
       -0.07242392 0.02002564 -0.060279157 0.049018696
000030 18 46 20 3d 48 3d 0d 3d 60 98 16 bd dc a1 bb bd
       0.039129347 0.03448227 -0.03676641 -0.091617316
000040 23 88 7b 3d 6d 72 0d bd e0 d9 6f 3d 6c d4 78 3d
       0.061409127 -0.034532953 0.05855739 0.060749456
000050 91 48 45 bd 05 8c e6 3d 12 74 a1 3b 92 76 9d bd
       -0.048164908 0.11257175 0.0049271667 -0.07688631
000060 96 16 2f bc c6 ea ce 3d dc 3a 2b 3c 20 23 e2 3d
       -0.010686537 0.10103373 0.010451045 0.11041856
000070 d4 96 1a 3d 1a 7f a6 bd c7 6a 04 3c 95 79 34 bd
       0.037741497 -0.081297114 0.008082098 -0.044061262
000080 c8 23 b6 bd 30 ad a0 3d 89 e7 f8 bc f7 15 c1 bc
       -0.088935435 0.07845533 -0.030383842 -0.023570044
000090 aa 70 cb 3d a9 9a 9d 3c 0a 36 93 bd e5 2d be 3d
       0.09933598 0.019238787 -0.071880415 0.092860974
0000a0 44 db 03 bd a3 26 ca bd 33 04 31 bc 6f 7b 41 3d
       -0.03219153 -0.098706506 -0.010804224 0.047236856
0000b0 e4 26 cc 3d 60 e8 8f 3d 97 ab a0 3d 32 1f fd ba
       0.09968355 0.07026744 0.07845228 -0.0019311665
0000c0 6c 07 05 3d 33 78 22 3d c5 6b 81 3c 16 bf 89 3d
       0.03247778 0.039665412 0.015798459 0.067259
0000d0 56 4b d2 3d 71 25 88 bd bc da eb bb d9 bc 22 3d
       0.102682754 -0.066477664 -0.007197706 0.03973088
0000e0 21 c6 ff bc a5 9e 9b 3d e0 7d b6 3d 66 30 d8 3b
       -0.031222405 0.075986184 0.089107275 0.0065975664
0000f0 e3 4f c0 bd 7c 32 ea bd 64 11 c7 3b 95 76 ce 3d
       -0.09390237 -0.114354104 0.006075071 0.100812115
000100 10 f6 12 3d 77 06 fd bd f6 58 f8 bb dc 42 b2 39
       0.035879195 -0.12354749 -0.0075789643 0.0003400062
000110 f7 56 e5 bc 84 34 49 3a da 41 e6 3c c6 95 ed 3d
       -0.02799557 0.0007675367 0.028107572 0.11600833
000120 21 7e 83 3c cc 37 6f 3d f8 c9 c8 bd 28 84 94 bd
       0.016051354 0.05840282 -0.098041475 -0.07251769
000130 19 ce b3 3d 2c 13 1e bd 34 c4 01 3e ed e0 58 3d
       0.087795444 -0.038592502 0.12672502 0.05294888
000140 2b ab 9f 3d 5e 79 c6 3d 54 c2 f1 3d fe 1e 67 3d
       0.077963196 0.09691118 0.11804643 0.05642604
000150 38 79 f0 3d 80 fb 8b 3d f5 a3 89 bd 2a 07 45 bc
       0.11741871 0.06835079 -0.067207254 -0.012025634
000160 29 49 d6 3d 52 21 f4 3d 11 76 8d 3d f8 ca b5 bd
       0.10463173 0.11920418 0.06907285 -0.08876604
000170 68 b2 e7 3d 6f 49 0f bd f0 4a 91 bd 39 d2 d4 bc
       0.11313325 -0.03498214 -0.07094371 -0.025979148
000180 72 a4 fa 3b 3e a9 9f bd 31 71 b6 3d bb 1f 25 3c
       0.007648998 -0.07795952 0.08908308 0.010078366
000190 d3 53 e0 3d e1 d6 f3 3d 4c ee 27 bc cd 5f b0 bd
       0.10953488 0.11906219 -0.0102496855 -0.086120225
0001a0 e4 5d 99 bc c9 35 1c 3d cd a7 f1 bd fe 70 9a 3d
       -0.018721528 0.03813723 -0.117995836 0.07541083
0001b0 54 e1 6a 3c ae 42 5c bd 67 e2 d1 bd de d2 a3 bd
       0.014335949 -0.05377453 -0.10248261 -0.07999204
0001c0 e9 61 a7 bd 5c ce b4 bd a3 df 22 3c 3c 33 5d 3c
       -0.08172972 -0.088284224 0.009941014 0.013500985
0001d0 a1 13 34 3d b5 f7 ea bc 3f e0 e5 3d 9d f4 90 bd
       0.043964032 -0.028682569 0.11224412 -0.07077906
0001e0 68 9d b9 3d 5e 73 97 3d 28 47 03 3d 4c c3 68 bd
       0.09063226 0.073950514 0.03205028 -0.056826875
0001f0 4c c4 03 be 6d c5 05 3d cf ac 39 3d 26 fb 4c 3d
       -0.1286785 0.032658983 0.04533082 0.0500442
000200 e1 e3 8a bd b3 0c 18 bd 02 98 60 bd 89 f3 58 3d
       -0.06781746 -0.037121486 -0.054832466 0.05296663
000210 1a cd 65 bc 87 6a e3 bd 46 d3 1a 3d 46 3e 09 3c
       -0.014025951 -0.11104303 0.037799142 0.008376664
000220 08 a8 fe 3c 91 c0 9b bd a1 05 e5 bd ec 8d 5d bd
       0.031085983 -0.076050885 -0.11182714 -0.054090425
000230 7c b9 cf bd 05 1b f5 3d 40 06 3f 3d 77 2d fe bc
       -0.101428 0.11968044 0.04663682 -0.031027539
000240 b6 35 36 3d 5b f0 36 3d 2a 35 de bd 09 f4 ae 3d
       0.044484816 0.044662815 -0.10849984 0.0854264
000250 a5 00 84 bd ba 08 85 3c 00 01 ca 3d e5 95 dd bd
       -0.064454354 0.016239513 0.09863472 -0.10819606
000260 c4 69 58 3d c5 e1 e7 bd 95 ec c9 3d f8 76 8f 3c
       0.05283524 -0.11322359 0.098595776 0.017512783
000270 07 31 39 bd 17 35 9a bd e7 5d e6 3d 19 5a d7 bd
       -0.04521277 -0.07529657 0.11248379 -0.10515232
000280 4e 24 87 3d 07 05 07 3d d8 c9 6a 3d b1 72 82 3d
       0.065987214 0.03296378 0.0573214 0.06369532
000290 cd f7 9d bc 6a df 8e 3c 0d 90 5e 3d 71 72 22 bd
       -0.0192832 0.017440517 0.054336596 -0.03965992
0002a0 95 71 c5 bd 5d 13 c7 bd dd 85 d7 bd 2a 48 2c bd
       -0.09640805 -0.0972049 -0.10523579 -0.04206101
0002b0 28 06 e0 bd ec a8 a4 3c 79 92 95 3c a9 54 c3 3d
       -0.10938674 0.02010008 0.01825832 0.09537632
0002c0 5e d9 a6 bd fb 41 26 bd 59 b3 8e bd 96 98 17 bd
       -0.08146928 -0.040590268 -0.069678016 -0.03701075
0002d0 30 85 90 3d 60 e4 cd 3a 23 b2 80 bd ba 1e 19 be
       0.070566535 0.001570832 -0.06283977 -0.14953128
0002e0 96 7a 0b be b2 e5 fd 3c b0 04 7e bc 9b d0 75 bd
       -0.13620982 0.030993316 -0.015504047 -0.060013395
0002f0 c5 81 e5 bd d9 ee ec 3c c8 84 d1 bd f9 91 a7 bc
       -0.11206392 0.028922485 -0.10230404 -0.020455347
000300 43 bf 5e 3a f1 c4 7c 3c 87 14 dd bd c4 46 d9 bd
       0.0008497128 0.015427814 -0.10794931 -0.106092006
000310 2c 7d 71 bd ac 89 11 bc cf f6 05 3d 34 bb 65 3b
       -0.058957264 -0.008882921 0.03270608 0.0035054209
000320 52 38 7e bb 97 33 a4 3d f5 53 90 bd f5 5c b1 3d
       -0.0038790894 0.080176525 -0.070472635 0.08660308
000330 67 14 7c 3d de c0 d7 3d 50 b2 0e be 97 46 bf bd
       0.061542895 0.10534833 -0.13935208 -0.09339636
000340 e3 55 b5 bd 14 5d 6f 3c 7a 4d a1 3d 22 9d d7 bd
       -0.08854272 0.014609594 0.078761056 -0.105280176
000350 15 96 05 3e 4a 2a a3 3d f5 58 99 3d 16 d9 0a 3e
       0.13045533 0.079670504 0.0748767 0.13559374
000360 1a b7 08 bd 9f 3f 4b bd 1e fc 7b bc 3b 70 2d 3d
       -0.033377744 -0.04962122 -0.015379934 0.04234336
000370 22 f9 0d ba e4 dc a9 3d 68 9f 14 be 18 17 c2 bc
       -0.0005415847 0.08294085 -0.14513934 -0.023692653
000380 3a 32 0c bd b3 2b d3 3d d6 26 c5 bd 4c 21 e9 bd
       -0.034227587 0.10311069 -0.09626548 -0.11383304
000390 dc 57 b3 3d f1 9a ea bc 82 d9 8a bd 73 61 95 bd
       0.08756992 -0.028638335 -0.067797676 -0.072939776
0003a0 fc 42 df bd 81 c6 c8 bd 0a ca 1c 3d ca ce 96 3d
       -0.10901448 -0.098034866 0.038278617 0.07363661
0003b0 28 50 df 3d 49 18 76 bd e7 e1 98 bc 07 3f d8 bc
       0.109039605 -0.060081754 -0.018662406 -0.026397241
0003c0 83 a4 b0 3c e5 04 9a bd 46 47 1e bd 34 6d ec bc
       0.02156282 -0.07520465 -0.03864219 -0.028860666
0003d0 d8 13 18 bd a0 0e fc bd 5d 50 00 3e c9 9d d8 bd
       -0.0371283 -0.12307477 0.12530656 -0.1057697
0003e0 1e fe 81 3a 33 95 cd 3c 1f c1 0a bd d1 2a ea bd
       0.0009917652 0.025095558 -0.03387558 -0.11433948
0003f0 93 51 03 bc 39 2a c4 3b 7f 43 a4 bd f0 27 04 be
       -0.008015054 0.0059864786 -0.08020686 -0.1290586

rnn.weight_hh_l1 f4 [64, 64]
000000 14 80 d4 3d e5 8e 36 3d 61 c0 f1 bd a2 fa 04 bd
       0.103759915 0.04456987 -0.118042715 -0.032465585
000010 30 7b a2 3d 74 9d dd 3d 0d 15 2a bc dd ad e2 bc
       0.079336524 0.108210474 -0.010380995 -0.027670795
000020 c0 66 ab 3c a8 a9 bd 3d 48 94 86 3d a6 a2 9a bd
       0.020923018 0.09260875 0.06571251 -0.07550554
000030 47 f1 5f bd 25 38 ba 3d 8c 4c aa 3d b9 ac 90 3d
       -0.05467346 0.0909274 0.083153814 0.07064194
000040 5c 3e 78 3d 45 4d 19 3d 0a 61 b6 3d 6d a3 dd 3d
       0.060606346 0.037427206 0.089052275 0.108221866
000050 1a 72 48 bd 04 07 08 3c 1d 6e 2c 3d bf 1b ce bd
       -0.04893694 0.008302454 0.0420972 -0.10063886
000060 da 09 14 3d 9f 73 73 3d 3c dd 92 3c 61 9c 83 bd
       0.036142208 0.059436437 0.017927758 -0.06426311
000070 6a 16 a4 bd 51 49 2d bc e1 ae 70 3d 73 1e e4 bd
       -0.08012088 -0.010576562 0.058760528 -0.1113862
000080 6f b3 d5 3b d0 db d6 3d 00 3f ef bd 49 e1 b2 bd
       0.0065216343 0.10491145 -0.11681938 -0.08734376
000090 78 5c 81 bc 01 7d f3 bd df db 98 bd d8 60 f5 3b
       -0.015791163 -0.11889077 -0.07463812 0.0074883513
0000a0 4e aa e6 bd 56 d8 61 bd 56 bb d0 3d 9c f0 d4 bc
       -0.11262952 -0.055137955 0.101919815 -0.025993638
0000b0 d6 67 f2 bd 64 18 b6 3d ae cc 8e 3c 8f ba 50 bd
       -0.118362114 0.08891371 0.017431583 -0.050959166
0000c0 b8 bd 6d bd c1 8b 13 bd 9d de 91 3d de d1 d7 3c
       -0.058042258 -0.03602195 0.07122538 0.02634519
0000d0 b1 4f d1 3b e8 c9 73 bc 00 e3 b8 3c b3 ab c6 3d
       0.006387674 -0.014879681 0.02256918 0.09700718
0000e0 8b d3 7d bd 26 1e b6 3d 66 cc 9b 3d fc b0 f3 bb
       -0.06196932 0.08892469 0.07607345 -0.0074368697
0000f0 ab 05 4f bc 45 30 16 3d d9 2f 41 bd 40 b5 da 3c
       -0.012635629 0.036667127 -0.04716477 0.026697755
000100 f9 03 f8 3d 4e 6d 46 3d 54 7b 8b 3d 17 7e 17 3d
       0.12110133 0.048444085 0.06810632 0.036985483
000110 a3 b3 f5 bd 4c 84 c5 bd 84 61 64 3d 67 55 36 3d
       -0.119971536 -0.09644374 0.05575706 0.04451504
000120 1f 9f 1b bd e2 21 83 bc 96 b0 90 bd 73 76 0f 3e
       -0.037993547 -0.016007368 -0.07064931 0.14010029
000130 3c 27 84 3d 97 25 dc 3d 1f 8f cc 3d 4f bf 96 3d
       0.06452796 0.10749357 0.09988236 0.07360708
000140 ad ba 63 bd bb 61 48 bd de 55 94 bd d1 37 01 3b
       -0.05559795 -0.048921328 -0.0724294 0.0019717107
000150 16 ce 19 3a bd 5f d2 bd b8 80 01 be bf 24 5c bd
       0.0005867196 -0.10272167 -0.12646759 -0.05374598
000160 dd f8 72 3d 36 b3 85 3d 24 6b 7a bd 26 4b c7 bc
       0.059319366 0.065283224 -0.061137334 -0.024327826
000170 57 3a d2 3d 60 f8 cd 3d ca a8 6d bd 4a a9 f7 bd
       0.10265034 0.100571394 -0.058022298 -0.12092836
000180 1e c1 89 bc 36 f1 d8 bd 42 b8 c7 bd 14 92 85 3b
       -0.016815718 -0.10592882 -0.09751941 0.0040762518
000190 99 96 44 3c 9f 96 6e bc d9 fd cc 3d ce 44 d8 3c
       0.011998796 -0.014562278 0.10009355 0.026399996
0001a0 0f df aa 3c 47 76 ec bd b3 bf fb 3d 6d 8e d0 3d
       0.020858316 -0.11545997 0.12292423 0.101834156
0001b0 da b8 95 bd d6 c9 fc 3d 52 2e c2 3d 32 93 a8 bb
       -0.07310648 0.12343185 0.09481491 -0.0051445
0001c0 91 8a 1c 3d 98 94 dd 3d 9e dd af bd 35 29 a9 bc
       0.038218085 0.10819358 -0.08587192 -0.020649532
0001d0 ca 95 a5 3b 8e 80 0c 3b 82 bb b8 bd 14 f2 cd 3d
       0.0050532566 0.002143893 -0.09020139 0.10055938
0001e0 fe 5b fe bb d2 04 d7 3c b6 43 df 3c cd 1c 38 3d
       -0.007762431 0.026247416 0.027253967 0.04494934
0001f0 38 cf 09 bd 22 fb a5 3d 35 60 bb 3d 37 0e e9 bd
       -0.033644885 0.081045404 0.091492094 -0.113796644
000200 93 ad 05 be 08 a9 9c bc 06 be 17 3d 7f f8 33 bb
       -0.13054495 -0.01912357 0.037046455 -0.0027461348
000210 8b f6 3d bd ae 16 cd bd c8 8f 0a 3d 72 3c f5 3a
       -0.0463777 -0.100140914 0.033828527 0.0018710031
000220 16 61 6c bd 4a 6f b5 3a 37 b9 81 3d a4 39 1d 3c
       -0.057709776 0.0013842371 0.06334155 0.009596262
000230 76 61 5b bd cb 15 c2 bd 37 d8 eb 3d e5 80 7a 3d
       -0.053559743 -0.09476813 0.11515849 0.06115808
000240 e2 93 19 bd 83 eb 2f 3d b3 d6 be 3d 29 53 95 bd
       -0.037494548 0.04294921 0.093182944 -0.07291252
000250 21 4b 40 3d 1a ad a5 bb 98 74 79 3d 5e a6 b8 bd
       0.04694665 -0.0050560357 0.060902208 -0.09016107
000260 ce d1 fb bd 00 2d 66 bd ca f9 8d 3d 9b d6 da bd
       -0.122958764 -0.05619526 0.06932409 -0.10685464
000270 a6 65 49 3d 44 48 28 bd c8 ce 80 bc 95 e1 40 3d
       0.049169205 -0.041084543 -0.015723601 0.04709013
000280 e1 3e f7 bd 65 66 a7 3b 9f e1 a5 bd 9f 9c 8b bc
       -0.1207254 0.005108642 -0.080996744 -0.017042456
000290 80 00 e9 bd 69 af 96 bd 84 34 a7 3d 77 0d 2a bd
       -0.113770485 -0.073576756 0.081643134 -0.041516747
0002a0 94 1f b5 bc d4 58 c8 bb 02 65 d3 bd 01 0c 92 3d
       -0.022109784 -0.0061141048 -0.10322 0.07131196
0002b0 e8 cd 8b bd 1b df f5 bd 46 c6 49 bd 56 c0 c9 bd
       -0.06826383 -0.120054446 -0.049261354 -0.09851138
0002c0 79 e1 53 bc 25 3d 6e bd 0e da 9d bd 45 e0 bd bd
       -0.012932175 -0.05816378 -0.07707606 -0.09271292
0002d0 b8 ac 4d bc 4a f7 a2 3d 55 06 b0 3d 49 72 b4 bd
       -0.012553386 0.07957323 0.08594958 -0.08810861
0002e0 f5 3d 31 bd e1 f4 b4 3d 1e f4 fa 3d 90 f8 68 bd
       -0.043271977 0.088357694 0.12253593 -0.056877673
0002f0 b7 2b 0d 3d ba 59 be bd 58 97 2a 3d 26 44 a5 bd
       0.034465518 -0.09294458 0.04164824 -0.08069639
000300 5f 4f 71 bc 88 b7 0b bd 27 0f 7d bd a4 ab b7 bd
       -0.014728396 -0.034110576 -0.06178203 -0.08968285
000310 bb d0 29 3d 4d 10 ba bd 15 67 95 3d d6 48 95 bc
       0.041458827 -0.090851404 0.07295052 -0.018223207
000320 e8 87 96 bd 40 b6 01 3e 88 34 d8 bd 37 2c 13 bd
       -0.07350141 0.12667179 -0.105568945 -0.03593084
000330 0c 3a 95 3d 90 a8 c6 bc 6a 5b 5e bd eb 4e 14 3c
       0.07286462 -0.024250299 -0.054286398 0.009052019
000340 cf ba d1 3d a1 94 fc bc fc 04 a1 bd da 01 1a 3d
       0.10240709 -0.03083259 -0.07862279 0.037599422
000350 58 a2 ce bd 4d 6e f4 3d ab 6a 99 3d ac 13 34 bc
       -0.10089558 0.11935101 0.074910484 -0.010991018
000360 61 55 2a 3d 7f 92 f8 3c 18 d6 b1 3d 71 4b c7 bd
       0.04158533 0.030343292 0.08683413 -0.09731186
000370 4c 8a a2 3d 9f a8 2c bd a2 40 20 3d 99 c3 ff 3c
       0.07936534 -0.042152997 0.03912414 0.031221198
000380 a9 8e da bd 13 fb b6 bd be 26 ca 3d 3b 84 e8 ba
       -0.106717415 -0.08934607 0.09870671 -0.0017739603
000390 2b fb a0 bd 56 be 74 bd 3c f6 83 bd 56 68 3c bd
       -0.078604065 -0.05975183 -0.0644345 -0.04599794
0003a0 b3 7b bb 3b 30 5f e8 bd a3 85 04 3e f4 46 81 bd
       0.005721533 -0.113462806 0.12941603 -0.06312361
0003b0 41 d3 55 3d 2a 0d 11 bd a4 f1 fd 3c 7b 70 b7 bd
       0.05220342 -0.035412945 0.030999012 -0.08957001
0003c0 fe d7 62 bc 83 6f 0c bd 53 64 a8 bd 88 49 cc 3d
       -0.013845442 -0.034286033 -0.0822226 0.099749625
0003d0 5b 9e cb 3d 6a a7 e9 bd 12 b4 04 bd f4 2a b4 3a
       0.09942313 -0.11408885 -0.03239829 0.0013745711
0003e0 3d 14 aa 3d 3f 5f 85 3c 31 09 4f 3c 43 30 ff b9
       0.083046414 0.016280768 0.012636469 -0.00048673348
0003f0 6c 63 81 bb 7a 62 cc 3c 3f fc b1 bd 51 eb bd bd
       -0.0039486196 0.024949301 -0.0869069 -0.09273399
